Model: "model"
__________________________________________________________________________________________________
Layer (type)                    Output Shape         Param #     Connected to                     
==================================================================================================
input_1 (InputLayer)            [(None, 384, 512, 3) 0                                            
__________________________________________________________________________________________________
conv2d (Conv2D)                 (None, 384, 512, 16) 448         input_1[0][0]                    
__________________________________________________________________________________________________
batch_normalization (BatchNorma (None, 384, 512, 16) 64          conv2d[0][0]                     
__________________________________________________________________________________________________
activation (Activation)         (None, 384, 512, 16) 0           batch_normalization[0][0]        
__________________________________________________________________________________________________
conv2d_1 (Conv2D)               (None, 384, 512, 16) 2320        activation[0][0]                 
__________________________________________________________________________________________________
batch_normalization_1 (BatchNor (None, 384, 512, 16) 64          conv2d_1[0][0]                   
__________________________________________________________________________________________________
activation_1 (Activation)       (None, 384, 512, 16) 0           batch_normalization_1[0][0]      
__________________________________________________________________________________________________
conv2d_2 (Conv2D)               (None, 384, 512, 16) 2320        activation_1[0][0]               
__________________________________________________________________________________________________
batch_normalization_2 (BatchNor (None, 384, 512, 16) 64          conv2d_2[0][0]                   
__________________________________________________________________________________________________
add (Add)                       (None, 384, 512, 16) 0           activation[0][0]                 
                                                                 batch_normalization_2[0][0]      
__________________________________________________________________________________________________
activation_2 (Activation)       (None, 384, 512, 16) 0           add[0][0]                        
__________________________________________________________________________________________________
conv2d_3 (Conv2D)               (None, 384, 512, 16) 2320        activation_2[0][0]               
__________________________________________________________________________________________________
batch_normalization_3 (BatchNor (None, 384, 512, 16) 64          conv2d_3[0][0]                   
__________________________________________________________________________________________________
activation_3 (Activation)       (None, 384, 512, 16) 0           batch_normalization_3[0][0]      
__________________________________________________________________________________________________
conv2d_4 (Conv2D)               (None, 384, 512, 16) 2320        activation_3[0][0]               
__________________________________________________________________________________________________
batch_normalization_4 (BatchNor (None, 384, 512, 16) 64          conv2d_4[0][0]                   
__________________________________________________________________________________________________
add_1 (Add)                     (None, 384, 512, 16) 0           activation_2[0][0]               
                                                                 batch_normalization_4[0][0]      
__________________________________________________________________________________________________
activation_4 (Activation)       (None, 384, 512, 16) 0           add_1[0][0]                      
__________________________________________________________________________________________________
conv2d_5 (Conv2D)               (None, 384, 512, 16) 2320        activation_4[0][0]               
__________________________________________________________________________________________________
batch_normalization_5 (BatchNor (None, 384, 512, 16) 64          conv2d_5[0][0]                   
__________________________________________________________________________________________________
activation_5 (Activation)       (None, 384, 512, 16) 0           batch_normalization_5[0][0]      
__________________________________________________________________________________________________
conv2d_6 (Conv2D)               (None, 384, 512, 16) 2320        activation_5[0][0]               
__________________________________________________________________________________________________
batch_normalization_6 (BatchNor (None, 384, 512, 16) 64          conv2d_6[0][0]                   
__________________________________________________________________________________________________
add_2 (Add)                     (None, 384, 512, 16) 0           activation_4[0][0]               
                                                                 batch_normalization_6[0][0]      
__________________________________________________________________________________________________
activation_6 (Activation)       (None, 384, 512, 16) 0           add_2[0][0]                      
__________________________________________________________________________________________________
conv2d_7 (Conv2D)               (None, 192, 256, 32) 4640        activation_6[0][0]               
__________________________________________________________________________________________________
batch_normalization_7 (BatchNor (None, 192, 256, 32) 128         conv2d_7[0][0]                   
__________________________________________________________________________________________________
activation_7 (Activation)       (None, 192, 256, 32) 0           batch_normalization_7[0][0]      
__________________________________________________________________________________________________
conv2d_8 (Conv2D)               (None, 192, 256, 32) 9248        activation_7[0][0]               
__________________________________________________________________________________________________
conv2d_9 (Conv2D)               (None, 192, 256, 32) 4640        activation_6[0][0]               
__________________________________________________________________________________________________
batch_normalization_8 (BatchNor (None, 192, 256, 32) 128         conv2d_8[0][0]                   
__________________________________________________________________________________________________
add_3 (Add)                     (None, 192, 256, 32) 0           conv2d_9[0][0]                   
                                                                 batch_normalization_8[0][0]      
__________________________________________________________________________________________________
activation_8 (Activation)       (None, 192, 256, 32) 0           add_3[0][0]                      
__________________________________________________________________________________________________
conv2d_10 (Conv2D)              (None, 192, 256, 32) 9248        activation_8[0][0]               
__________________________________________________________________________________________________
batch_normalization_9 (BatchNor (None, 192, 256, 32) 128         conv2d_10[0][0]                  
__________________________________________________________________________________________________
activation_9 (Activation)       (None, 192, 256, 32) 0           batch_normalization_9[0][0]      
__________________________________________________________________________________________________
conv2d_11 (Conv2D)              (None, 192, 256, 32) 9248        activation_9[0][0]               
__________________________________________________________________________________________________
batch_normalization_10 (BatchNo (None, 192, 256, 32) 128         conv2d_11[0][0]                  
__________________________________________________________________________________________________
add_4 (Add)                     (None, 192, 256, 32) 0           activation_8[0][0]               
                                                                 batch_normalization_10[0][0]     
__________________________________________________________________________________________________
activation_10 (Activation)      (None, 192, 256, 32) 0           add_4[0][0]                      
__________________________________________________________________________________________________
conv2d_12 (Conv2D)              (None, 192, 256, 32) 9248        activation_10[0][0]              
__________________________________________________________________________________________________
batch_normalization_11 (BatchNo (None, 192, 256, 32) 128         conv2d_12[0][0]                  
__________________________________________________________________________________________________
activation_11 (Activation)      (None, 192, 256, 32) 0           batch_normalization_11[0][0]     
__________________________________________________________________________________________________
conv2d_13 (Conv2D)              (None, 192, 256, 32) 9248        activation_11[0][0]              
__________________________________________________________________________________________________
batch_normalization_12 (BatchNo (None, 192, 256, 32) 128         conv2d_13[0][0]                  
__________________________________________________________________________________________________
add_5 (Add)                     (None, 192, 256, 32) 0           activation_10[0][0]              
                                                                 batch_normalization_12[0][0]     
__________________________________________________________________________________________________
activation_12 (Activation)      (None, 192, 256, 32) 0           add_5[0][0]                      
__________________________________________________________________________________________________
conv2d_14 (Conv2D)              (None, 96, 128, 64)  18496       activation_12[0][0]              
__________________________________________________________________________________________________
batch_normalization_13 (BatchNo (None, 96, 128, 64)  256         conv2d_14[0][0]                  
__________________________________________________________________________________________________
activation_13 (Activation)      (None, 96, 128, 64)  0           batch_normalization_13[0][0]     
__________________________________________________________________________________________________
conv2d_15 (Conv2D)              (None, 96, 128, 64)  36928       activation_13[0][0]              
__________________________________________________________________________________________________
conv2d_16 (Conv2D)              (None, 96, 128, 64)  18496       activation_12[0][0]              
__________________________________________________________________________________________________
batch_normalization_14 (BatchNo (None, 96, 128, 64)  256         conv2d_15[0][0]                  
__________________________________________________________________________________________________
add_6 (Add)                     (None, 96, 128, 64)  0           conv2d_16[0][0]                  
                                                                 batch_normalization_14[0][0]     
__________________________________________________________________________________________________
activation_14 (Activation)      (None, 96, 128, 64)  0           add_6[0][0]                      
__________________________________________________________________________________________________
conv2d_17 (Conv2D)              (None, 96, 128, 64)  36928       activation_14[0][0]              
__________________________________________________________________________________________________
batch_normalization_15 (BatchNo (None, 96, 128, 64)  256         conv2d_17[0][0]                  
__________________________________________________________________________________________________
activation_15 (Activation)      (None, 96, 128, 64)  0           batch_normalization_15[0][0]     
__________________________________________________________________________________________________
conv2d_18 (Conv2D)              (None, 96, 128, 64)  36928       activation_15[0][0]              
__________________________________________________________________________________________________
batch_normalization_16 (BatchNo (None, 96, 128, 64)  256         conv2d_18[0][0]                  
__________________________________________________________________________________________________
add_7 (Add)                     (None, 96, 128, 64)  0           activation_14[0][0]              
                                                                 batch_normalization_16[0][0]     
__________________________________________________________________________________________________
activation_16 (Activation)      (None, 96, 128, 64)  0           add_7[0][0]                      
__________________________________________________________________________________________________
conv2d_19 (Conv2D)              (None, 96, 128, 64)  36928       activation_16[0][0]              
__________________________________________________________________________________________________
batch_normalization_17 (BatchNo (None, 96, 128, 64)  256         conv2d_19[0][0]                  
__________________________________________________________________________________________________
activation_17 (Activation)      (None, 96, 128, 64)  0           batch_normalization_17[0][0]     
__________________________________________________________________________________________________
conv2d_20 (Conv2D)              (None, 96, 128, 64)  36928       activation_17[0][0]              
__________________________________________________________________________________________________
batch_normalization_18 (BatchNo (None, 96, 128, 64)  256         conv2d_20[0][0]                  
__________________________________________________________________________________________________
add_8 (Add)                     (None, 96, 128, 64)  0           activation_16[0][0]              
                                                                 batch_normalization_18[0][0]     
__________________________________________________________________________________________________
activation_18 (Activation)      (None, 96, 128, 64)  0           add_8[0][0]                      
__________________________________________________________________________________________________
average_pooling2d (AveragePooli (None, 12, 16, 64)   0           activation_18[0][0]              
__________________________________________________________________________________________________
flatten (Flatten)               (None, 12288)        0           average_pooling2d[0][0]          
__________________________________________________________________________________________________
class_probabs (Dense)           (None, 3)            36867       flatten[0][0]                    
__________________________________________________________________________________________________
activation_19 (Activation)      (None, 3)            0           class_probabs[0][0]              
==================================================================================================
Total params: 331,139
Trainable params: 329,763
Non-trainable params: 1,376
__________________________________________________________________________________________________
Train on 1159 samples, validate on 232 samples
Learning rate:  0.001
Epoch 1/50

…
